…
del.eval(), \"\\n\")\n\n# Get corresponding tokenizer/encoder\ntokenizer = AutoTokenizer.from_pretrained(model_name)\n\nprint(\"About the tokenizer: \\n\\n\", tokenizer)","metadata":{"trusted":true,"execution":{"iopub.status.busy":"2025-05-29T20:21:23.832700Z","iopub.execute_input":"2025-05-29T20:21:23.833466Z","iopub.status.idle":"2025-05-29T20:21:24.575162Z","shell.execute_reply.started":"2025-05-29T20:21:23.833440Z","shell.execute_reply":"2025-05-29T20:21:24.573829Z"}},"outputs":[{"name":"stdout","text":"About the model: \n\n BertModel(\n  (embeddings): BertEmbeddings(\n    (word_embeddings): Embedding(21128, 1024, padding_idx=0)\n    (position_embeddings): Embedding(512, 1024)\n    (token_type_embeddings): Embedding(2, 1024)\n    (LayerNorm): LayerNorm((1024,), eps=1e-12, elementwise_affine=True)\n    (dropout): Dropout(p=0.1, inplace=False)\n  )\n  (encoder): BertEncoder(\n    (layer): ModuleList(\n      (0-23): 24 x BertLayer(\n        (attention): BertAttention(\n          (self): BertSdpaSelfAttention(\n            (query): Linear(in_features=1024, out_features=1024, bias=True)\n            (key): Linear(in_features=1024, out_features=1024, bias=True)\n            (value): Linear(in_features=1024, out_features=1024, bias=True)\n            (dropout): Dropout(p=0.1, inplace=False)\n          )\n          (output): BertSelfOutput(\n            (dense): Linear(in_features=1024, out_features=1024, bias=True)\n            (LayerNorm): LayerNorm((1024,), eps=1e-12, elementwise_affine=True)\n            (dropout): Dropout(p=0.1, inplace=False)\n          )\n        )\n        (intermediate): BertIntermediate(\n          (dense): Linear(in_features=1024, out_features=4096, bias=True)\n          (intermediate_act_fn): GELUActivation()\n        )\n        (output): BertOutput(\n          (dense): Linear(in_features=4096, out_features=1024, bias=True)\n          (LayerNorm): LayerNorm((1024,), eps=1e-12, elementwise_affine=True)\n          (dropout): Dropout(p=0.1, inplace=False)\n        )\n      )\n    )\n  )\n  (pooler): BertPooler(\n    (dense): Linear(in_features=1024, out_features=1024, bias=True)\n    (activation): Tanh()\n  )\n) \n\nAbout the tokenizer: \n\n BertTokenizerFast(name_or_path='BAAI/bge-large-zh-v1.5', vocab_size=21128, model_max_length=1000000000000000019884624838656, is_fast=True, padding_side='right', truncation_side='right', special_tokens={'unk_token': '[UNK]', 'sep_token': '[SEP]', 'pad_token': '[PAD]', 'cls_token': '[CLS]'
…
